2021-08-05 15:59:39,114 - root - INFO - test cross val is None
2021-08-05 15:59:41,047 - train - INFO - ResMLP(
  (blocks): Sequential(
    (0): Residual(
      (linear1): Linear(in_features=512, out_features=512, bias=True)
      (relu1): ReLU()
      (norm_layer2): BatchNorm1d(512, eps=1e-05, momentum=0.1, affine=True, track_running_stats=True)
      (dropout2): Dropout(p=0.05, inplace=False)
      (linear2): Linear(in_features=512, out_features=512, bias=True)
      (relu2): ReLU()
    )
    (1): DownSample(
      (norm_layer): BatchNorm1d(512, eps=1e-05, momentum=0.1, affine=True, track_running_stats=True)
      (dropout): Dropout(p=0.05, inplace=False)
      (linear): Linear(in_features=512, out_features=256, bias=True)
      (relu): ReLU()
    )
    (2): Residual(
      (norm_layer1): BatchNorm1d(256, eps=1e-05, momentum=0.1, affine=True, track_running_stats=True)
      (dropout1): Dropout(p=0.05, inplace=False)
      (linear1): Linear(in_features=256, out_features=256, bias=True)
      (relu1): ReLU()
      (norm_layer2): BatchNorm1d(256, eps=1e-05, momentum=0.1, affine=True, track_running_stats=True)
      (dropout2): Dropout(p=0.05, inplace=False)
      (linear2): Linear(in_features=256, out_features=256, bias=True)
      (relu2): ReLU()
    )
    (3): DownSample(
      (norm_layer): BatchNorm1d(256, eps=1e-05, momentum=0.1, affine=True, track_running_stats=True)
      (dropout): Dropout(p=0.05, inplace=False)
      (linear): Linear(in_features=256, out_features=128, bias=True)
      (relu): ReLU()
    )
    (4): Linear(in_features=128, out_features=8, bias=True)
  )
)
Trainable parameters: 825736
2021-08-05 16:00:29,766 - trainer - INFO -     epoch          : 1
2021-08-05 16:00:29,766 - trainer - INFO -     loss           : 1.1948075079568918
2021-08-05 16:00:29,766 - trainer - INFO -     accuracy       : 0.526904668319007
2021-08-05 16:00:29,766 - trainer - INFO -     val_loss       : 1.1197297639953785
2021-08-05 16:00:29,766 - trainer - INFO -     val_accuracy   : 0.5665741657239819
…
